self-driving-car/original/last_brain.pth (torch_old, 4978 bytes, 12 tensors)

fc1.weight f4 [30, 5]
000000 5f fd ab bb c9 8b 2c 3f b7 d6 09 bd 15 52 39 bf
       -0.00524871 0.67400795 -0.033652034 -0.7239087
000010 5c 4b 47 3f b2 e0 52 3d e0 81 a9 be 2e d1 81 3f
       0.77849364 0.051483817 -0.331069 1.0141962
000020 e4 b0 7c 3f 2e c7 71 bf ef cb 00 3e 23 19 32 3f
       0.98707414 -0.9444455 0.12577794 0.69569606
000030 ee dd 4a 3f bb e0 fb 3e 05 df 56 be f5 3f 46 bf
       0.7924489 0.49194893 -0.20983513 -0.7744134
000040 a2 c7 e7 3e e7 ac 7c bf e0 e4 fc 3e d9 af 0f be
       0.45269495 -0.9870133 0.49393368 -0.14031924
000050 73 f9 0c bd a2 97 49 3f 63 2d 3f 3f de e6 cf 3f
       -0.03441758 0.78747 0.7467863 1.624233
000060 7c c1 b9 bf 98 b1 61 bd 24 f9 1d 3e 40 ef e3 be
       -1.4512172 -0.055101007 0.15427071 -0.4451847
000070 7a eb c9 3e f0 15 d2 3e ca 13 a6 bc ac d6 24 3c
       0.39437467 0.41032362 -0.020273108 0.010060947
000080 66 cc 9c 3e 58 67 34 3e a0 f7 8d 3e e0 3a 04 3d
       0.30624694 0.17617548 0.27727985 0.03228271
000090 be 0f e1 3e 8f 9a e7 3e c1 9e 80 3f 8e 59 8a bf
       0.43957323 0.45235106 1.0048448 -1.080858
0000a0 0b 83 8b bb 5c 71 14 3f 3a 88 ca bd b3 38 71 be
       -0.004257565 0.5798547 -0.098892644 -0.23556785
0000b0 47 b7 1d 3e 67 4e 96 ba 09 e2 50 3f d0 56 fe 3e
       0.15401946 -0.0011467458 0.815949 0.49675608
0000c0 c8 14 c9 be 26 39 36 3f b3 e3 94 bc 9f 3c 9e 3e
       -0.39273667 0.7118095 -0.018174982 0.30905625
0000d0 c7 86 89 3f 50 b0 01 bf f4 5a 1e 3e 4b c0 2d 3e
       1.0744256 -0.50659657 0.15464383 0.16967885
0000e0 50 58 3b bf b3 7e 19 3e c3 f7 9c 3e a3 20 6b 3e
       -0.7318163 0.14989738 0.30657777 0.22961669
0000f0 6e e8 eb bb 29 e7 68 be a0 85 62 be 76 e3 f0 bc
       -0.0071993386 -0.2274443 -0.22121286 -0.029405337
000100 f8 09 3d bc ba a6 a7 3e 03 ce 24 3e 43 af 59 3f
       -0.011538021 0.3274439 0.16094212 0.85033053
000110 4a 31 c2 be 53 52 a1 3e 96 4a 93 3e 2e e4 da bd
       -0.3792823 0.3150812 0.28767842 -0.10688053
000120 51 b0 97 3c 46 c0 e9 bd dc 1a f2 be 37 55 b5 3d
       0.018516691 -0.114136264 -0.47286117 0.08854144
000130 c0 8b 4e 3d d0 0e 0e 3e d0 c5 d3 bc c8 01 b3 bd
       0.050426245 0.13872838 -0.02585116 -0.08740574
000140 60 4e 2d bc 6f e0 55 3f 03 36 70 3f 92 69 e7 bd
       -0.010577768 0.83545583 0.93832415 -0.11299433
000150 53 47 3e 3f 26 b8 f9 bb 04 11 1a 3f ad d9 cc bd
       0.7432758 -0.007620829 0.60182214 -0.10002456
000160 57 cb 9c be 88 5f b7 3e c4 4b 0a bc 7b a6 b9 3e
       -0.30623886 0.35815072 -0.0084409155 0.36259827
000170 af dd c4 3e 42 19 3f be 7d 99 3f be 71 74 0d 3e
       0.3845038 -0.18661979 -0.18710895 0.1381395
000180 b2 f2 0b 3f 7c f2 2b 3f fa 9e 0f be 14 a5 20 3e
       0.546672 0.67166877 -0.14025488 0.15687972
000190 53 d3 88 bc a0 e6 d4 bd 08 e6 cd bc 7d d9 58 3e
       -0.01670233 -0.10395551 -0.025134102 0.21176715
0001a0 6c 5d 85 3e f7 5c 4d 3e 15 51 e7 3d 6f c2 3e 3d
       0.26047838 0.20054995 0.11294762 0.046572145
0001b0 e0 1f 0a 3f 71 32 d4 3b 07 6f 90 bb 56 d0 56 3f
       0.5395489 0.0064757396 -0.0044077667 0.83911645
0001c0 71 42 25 3e e9 b1 c0 3f 7b f6 d7 bf f0 18 22 bc
       0.16138627 1.5054294 -1.6872095 -0.009893641
0001d0 32 61 fe 3e fd a0 99 3f 52 0c e0 bd e5 f1 c4 3e
       0.4968353 1.2002255 -0.1093985 0.384658
0001e0 b8 6c 49 3d 8c 35 4b be 20 8a 3a bd 9c 79 e3 3e
       0.049175948 -0.19844645 -0.045541883 0.44428718
0001f0 0a 76 a5 3e b8 eb de 3e 49 b8 33 3d 0d 8e 84 3e
       0.3231662 0.43539214 0.04387692 0.25889626
000200 c5 47 a7 3e 56 32 45 bf 0f ca 1a bc 22 51 43 3e
       0.32671943 -0.7702993 -0.009447589 0.19073918
000210 f5 29 1f 3f e1 f1 1a bf 95 e8 10 3f 46 c6 a4 3e
       0.62173396 -0.6052533 0.5660489 0.3218252
000220 cc 54 42 3e 28 a9 23 3f e6 35 20 bf e0 e1 d0 3e
       0.1897766 0.63929987 -0.6258224 0.4079733
000230 42 2d 45 bf b2 89 fa be 89 fb 86 3f f8 28 f7 3c
       -0.7702218 -0.48933178 1.0545512 0.030170903
000240 5b 49 32 3e 77 8f 7a bf 6b 0c 77 3e 39 a7 c1 bb
       0.17410795 -0.9787516 0.24125831 -0.005909827
000250 21 be af bd c5 84 4e bc
       -0.08581186 -0.012604897

fc1.bias f4 [30]
000000 ae 3f 9d 3e 8b e6 65 bf 34 da 3b bf e0 e5 3d 3f
       0.30712646 -0.89804906 -0.73379827 0.74178886
000010 4d 8c 2c 3f fb b1 d8 be 79 85 96 3f a4 b7 0b bf
       0.6740158 -0.42323288 1.1759483 -0.5457709
000020 6b d2 34 3e 33 ba 52 3f 54 d7 4f 3f 70 94 0e 3f
       0.17658393 0.8231537 0.8118794 0.5569525
000030 b1 61 4c bd 5d 22 d0 3e 79 5d c4 be a8 5c d7 be
       -0.049897853 0.40651217 -0.38352564 -0.4206288
000040 1c b4 8c 3e 1b fa 79 3e 77 6e bf be f9 5f 4d 3f
       0.27481163 0.24411814 -0.37388965 0.8022457
000050 5d c0 8c 3f 54 8a c5 bc 1e db 7e 3e 3d e9 7e 3f
       1.0996205 -0.024113812 0.24888274 0.99574643
000060 94 b1 23 be 7b d2 dc bd 0e 51 41 3f 31 2f 10 3f
       -0.1598571 -0.107823335 0.75514305 0.5632201
000070 b2 13 fb 3d c2 af 34 3f
       0.12259616 0.70580685

fc2.weight f4 [3, 30]
000000 d5 c3 58 bd 06 d1 b8 be 4b 0c 16 bc 7f c0 84 3f
       -0.052921135 -0.36096972 -0.009158204 1.0371245
000010 2b 2a e8 be 00 c7 8a 3d e2 3c 97 3f 9a 23 1b 3d
       -0.45344672 0.067762375 1.1815455 0.03787575
000020 b0 65 94 bb 03 d3 c5 be e3 e3 d7 be fc 55 60 3d
       -0.0045287237 -0.38637552 -0.4216605 0.0547695
000030 4a a6 00 bd 0e ca 1c bd 8c 77 56 3d 3f ad 82 3d
       -0.031408586 -0.038278632 0.052360103 0.063807
000040 e7 58 5c be 35 eb 19 3c 9f 28 e8 3c 87 5b cd bd
       -0.21518289 0.009394457 0.028339682 -0.10027223
000050 71 e2 bf 3e 13 26 96 3d 31 5d a9 be a2 66 da be
       0.3747745 0.07331481 -0.33078912 -0.42656428
000060 b4 2f e7 3d 38 06 a9 3d 38 ff 82 be 07 46 f4 bd
       0.112883955 0.08253139 -0.2558534 -0.11927419
000070 ba 1d 1d 3f 08 31 cf 3e f2 ac 07 bf 6a 13 22 3d
       0.61373484 0.40467095 -0.5299827 0.039569296
000080 fa 7b 59 bf e6 f7 6c be 3d 41 6b be 1e 97 12 3e
       -0.849548 -0.23141441 -0.22974105 0.14315459
000090 53 73 17 3f 7e 8c 68 bf b4 15 de be 64 35 df be
       0.59160346 -0.90839374 -0.43375933 -0.4359542
0000a0 ad ed 0d 3e a4 db 86 3f e4 ab 8c be 5b 26 35 bd
       0.13860197 1.0535779 -0.27474892 -0.04422603
0000b0 8c c1 1a 3e 62 31 38 3e c3 3c f4 be 1e e7 a1 be
       0.15112895 0.17987588 -0.47702608 -0.3162164
0000c0 a1 3c 1e bf cc 36 16 be 7f 9b 1e 3f d7 81 75 bf
       -0.6181126 -0.14669341 0.6195602 -0.95901245
0000d0 b7 5d 86 3e e3 02 cd bd 34 22 cc 3d 41 bc 47 bf
       0.26243374 -0.10010316 0.09967461 -0.7802163
0000e0 87 c4 9b 3d 14 46 dd bd b7 35 02 3f 38 1c a5 be
       0.07605844 -0.10804382 0.5086321 -0.32248092
0000f0 32 6c 11 be 89 40 a3 bf 87 f7 3a bf 7f 8f 05 3e
       -0.1420143 -1.275407 -0.73033947 0.1304302
000100 14 a1 8f 3c 00 fe cd ba af 73 02 3f d5 12 6a bf
       0.017532863 -0.0015715957 0.5095777 -0.91434985
000110 93 53 07 3e 7b 5a 06 be 12 32 32 3d 43 7c 56 be
       0.13215475 -0.13120453 0.043504782 -0.2094584
000120 94 c3 dd bc 47 30 b0 be 6f a4 c7 3c ec db 33 3e
       -0.027070798 -0.34411833 0.0243704 0.17564362
000130 e5 99 6c be 11 23 93 bc 17 d1 59 bf f9 7e 8a 3c
       -0.23105581 -0.017961057 -0.8508467 0.016906248
000140 21 e0 66 3e bd 31 b4 be 38 1d 15 3f 78 ac a5 bd
       0.22546436 -0.35194197 0.5824771 -0.080895364
000150 b8 4d a8 bc 16 57 3e bf f7 30 3b be 6b f2 da be
       -0.020544872 -0.7435163 -0.18280397 -0.42763075
000160 ad 2c 8c 3f fa ed 81 3e
       1.0951134 0.25376874

fc2.bias f4 [3]
000000 2d 68 24 bf 6b a9 88 3d fa 92 70 be
       -0.6422146 0.06672939 -0.23493567

exp_avg f4 [30, 5]
000000 b8 eb 6b 39 9d 92 f6 b9 de fe 95 ba 29 04 23 3a
       0.00022499159 -0.00047030012 -0.0011443754 0.00062185765
000010 29 04 23 ba 41 77 d9 48 8b ce a5 38 fa d1 15 bb
       -0.00062185765 445370.03 7.906285e-05 -0.0022860751
000020 e7 4e 31 ba e7 4e 31 3a 79 b5 70 46 89 bb 3a bb
       -0.00067637715 0.00067637715 15405.368 -0.0028493127
000030 bb df 79 bb 09 f0 f2 3a 09 f0 f2 ba c8 a5 ae b9
       -0.0038127739 0.0018534671 -0.0018534671 -0.00033311383
000040 93 eb 8a bb d9 c5 57 b9 42 bc 1a 3a 42 bc 1a ba
       -0.0042395084 -0.00020577702 0.00059026864 -0.00059026864
000050 a7 bd 23 b9 6e 48 eb 3a 77 36 bb 39 68 70 ab b9
       -0.00015615542 0.0017950663 0.00035708 -0.0003269941
000060 68 70 ab 39 00 00 00 00 00 00 00 00 00 00 00 00
       0.0003269941 0.0 0.0 0.0
000070 00 00 00 00 00 00 00 00 56 6c 27 b6 61 cf 81 bb
       0.0 0.0 -2.4948e-06 -0.003961489
000080 ec 8f 09 3a 02 99 80 ba 02 99 80 3a 71 d9 24 c7
       0.0005247581 -0.0009811225 0.0009811225 -42201.44
000090 87 03 16 b9 8f 64 84 b8 89 ac c6 38 89 ac c6 b8
       -0.00014306429 -6.312981e-05 9.473513e-05 -9.473513e-05
0000a0 39 79 69 3a d8 9d 10 37 3f cc 23 3a 04 78 75 39
       0.0008906308 8.61982e-06 0.00062483916 0.0002340973
0000b0 04 78 75 b9 17 72 92 39 04 43 96 3a dd 04 35 39
       -0.0002340973 0.00027932294 0.0011464064 0.00017263317
0000c0 a6 1a 07 3b a6 1a 07 bb 9b e1 1f 3a e4 c3 11 3b
       0.002061525 -0.002061525 0.00060989865 0.0022242004
0000d0 26 57 58 3a 0e 8e 89 b9 0e 8e 89 39 21 26 72 c7
       0.0008252732 -0.00026236515 0.00026236515 -61990.13
0000e0 49 bf f6 38 b6 63 c4 ba 08 29 a0 b8 08 29 a0 38
       0.00011765824 -0.001498333 -7.637037e-05 7.637037e-05
0000f0 04 00 00 80 00 00 00 00 04 00 00 00 04 00 00 80
       -6e-45 0.0 6e-45 -6e-45
000100 04 00 00 00 4a 7e 48 47 2a 62 15 ba 55 7a d7 ba
       6e-45 51326.29 -0.00056985265 -0.0016439656
000110 3d 77 09 3a 3d 77 09 ba 2d 6e 66 c7 26 76 64 39
       0.0005243903 -0.0005243903 -58990.176 0.00021787788
000120 c5 61 21 38 17 08 2b b8 17 08 2b 38 be c3 8e c7
       3.8476446e-05 -4.077711e-05 4.077711e-05 -73095.484
000130 02 00 00 80 4e 28 00 80 00 00 00 00 00 00 00 00
       -3e-45 -1.4459e-41 0.0 0.0
000140 75 8f 8e b9 03 a4 b0 38 5c 5c 09 ba 80 ec d0 3a
       -0.00027191234 8.4228835e-05 -0.0005239898 0.0015939623
000150 80 ec d0 ba 6a 09 8a 39 1a 42 9b b9 59 54 9f b8
       -0.0015939623 0.00026328425 -0.00029613153 -7.597422e-05
000160 07 46 8a 39 07 46 8a b9 39 ff 84 bb 61 19 9e bb
       0.00026373586 -0.00026373586 -0.004058745 -0.0048248027
000170 47 3f 7e bb 28 95 d7 39 28 95 d7 b9 ba 99 f7 47
       -0.003879504 0.00041119126 -0.00041119126 126771.45
000180 00 ce c7 39 21 e0 9c 39 a0 8b 9f 37 a0 8b 9f b7
       0.0003810972 0.00029921628 1.9019295e-05 -1.9019295e-05
000190 1d f8 00 b8 6a 35 3b ba 80 76 ab 39 41 59 2e ba
       -3.074865e-05 -0.0007141443 0.0003270395 -0.0006650873
0001a0 41 59 2e 3a e5 05 a5 c7 54 fe 17 bb f9 38 06 bb
       0.0006650873 -84491.79 -0.0023192363 -0.0020480736
0001b0 5c 19 e3 3a 5c 19 e3 ba 52 d9 b7 3a 5b ed 11 3b
       0.0017326283 -0.0017326283 0.0014026558 0.002226672
0001c0 ed 3f 06 3b d2 f0 93 ba d2 f0 93 3a b3 5b a1 39
       0.002048488 -0.001128698 0.001128698 0.00030776634
0001d0 3f 8f e6 3a f4 95 99 39 20 82 d0 38 20 82 d0 b8
       0.0017590298 0.00029294158 9.9424506e-05 -9.9424506e-05
0001e0 05 bb 01 c8 04 00 00 80 40 49 00 80 00 00 00 00
       -132844.08 -6e-45 -2.6277e-41 0.0
0001f0 00 00 00 00 2a ca ba c7 80 86 3a bb c5 61 04 bb
       0.0 -95636.33 -0.0028461516 -0.0020199877
000200 79 a8 92 3a 79 a8 92 ba 7d e9 0e ba 19 40 29 3a
       0.0011189125 -0.0011189125 -0.00054516626 0.00064563897
000210 2a 83 18 ba 5c 2e 56 3a 5c 2e 56 ba 47 70 12 48
       -0.0005817885 0.000817036 -0.000817036 149953.11
000220 62 62 4f ba 79 f1 f6 ba 69 83 08 3a 69 83 08 ba
       -0.00079110835 -0.0018840275 0.000520757 -0.000520757
000230 07 95 7b 3b f3 32 8b 3b 53 40 51 3b 4d 89 32 bb
       0.0038388388 0.004248017 0.003192921 -0.0027242482
000240 4d 89 32 3b b8 fa 0b 3a ad 23 96 ba 20 a7 88 39
       0.0027242482 0.0005339789 -0.0011454724 0.0002606446
000250 5b 01 96 b9 5b 01 96 39
       -0.0002861124 0.0002861124

exp_avg_sq f4 [30, 5]
000000 92 14 a3 4e 21 b3 c0 37 20 e4 eb 37 5f 06 27 37
       1.3680172e+09 2.2971597e-05 2.8120412e-05 9.955459e-06
000010 5f 06 27 37 7a 3c 80 54 7b 16 7d 38 24 f3 6e 38
       9.955459e-06 4.4061635e+12 6.0340837e-05 5.6970064e-05
000020 95 37 ef 37 95 37 ef 37 67 76 1e 50 30 37 92 38
       2.8516903e-05 2.8516903e-05 1.0634239e+10 6.972102e-05
000030 7a c3 b3 38 49 11 1e 38 49 11 1e 38 02 db fc 37
       8.5717955e-05 3.7686234e-05 3.7686234e-05 3.0142724e-05
000040 41 26 94 38 db c1 b2 37 9d 3b 4e 38 9d 3b 4e 38
       7.064315e-05 2.1309525e-05 4.9169746e-05 4.9169746e-05
000050 25 ba 05 51 3c d1 78 38 01 30 45 38 e9 c0 8a 37
       3.5897102e+10 5.9322672e-05 4.7013167e-05 1.6540713e-05
000060 e9 c0 8a 37 00 00 00 00 00 00 00 00 00 00 00 00
       1.6540713e-05 0.0 0.0 0.0
000070 00 00 00 00 00 00 00 00 2e 87 32 53 33 37 d9 39
       0.0 0.0 7.667721e+11 0.00041430592
000080 0e b8 91 39 a7 bc 08 39 a7 bc 08 39 9c 40 a6 51
       0.00027793687 0.00013040249 0.00013040249 8.925607e+10
000090 9f f8 56 38 c2 a7 93 38 fe 26 3d 38 fe 26 3d 38
       5.1253122e-05 7.0407536e-05 4.5097426e-05 4.5097426e-05
0000a0 39 eb b6 4b ea 41 3f 37 18 b2 96 37 fa 4a e3 36
       2.3975538e+07 1.1399834e-05 1.7964325e-05 6.7738556e-06
0000b0 fa 4a e3 36 67 8b 45 53 d3 d0 1e 39 67 40 04 39
       6.7738556e-06 8.4844734e+11 0.00015145847 0.00012612493
0000c0 ff b0 2f 38 ff b0 2f 38 69 26 88 50 0b a4 02 39
       4.188809e-05 4.188809e-05 1.827375e+10 0.00012458877
0000d0 f1 dc e6 38 15 d6 f0 37 15 d6 f0 37 56 e4 fd 51
       0.00011008408 2.870992e-05 2.870992e-05 1.363072e+11
0000e0 ad f2 2a 38 41 f4 08 39 da dd 9a 38 da dd 9a 38
       4.0757168e-05 0.00013060962 7.384615e-05 7.384615e-05
0000f0 44 04 8e 30 00 00 00 00 ff 77 fa 30 f5 be 93 32
       1.0333072e-09 0.0 1.8223999e-09 1.719989e-08
000100 f5 be 93 32 f0 80 a5 51 0a d2 43 37 ec e6 06 37
       1.719989e-08 8.88541e+10 1.1671809e-05 8.040788e-06
000110 7c 3b 50 36 7c 3b 50 36 10 37 e0 51 17 67 3a 35
       3.102904e-06 3.102904e-06 1.2037456e+11 6.9440415e-07
000120 0f 7e 3f 35 b6 c4 bb 34 b6 c4 bb 34 f2 7a 37 52
       7.1336484e-07 3.497459e-07 3.497459e-07 1.9701042e+11
000130 00 00 00 00 00 00 00 00 00 00 00 00 00 00 00 00
       0.0 0.0 0.0 0.0
000140 fe a2 b0 4e 1c 1e 87 38 59 c3 81 38 7d 91 ce 37
       1.481736e+09 6.44291e-05 6.187586e-05 2.4624862e-05
000150 7d 91 ce 37 aa e3 94 4c 8e ff 08 37 87 16 42 37
       2.4624862e-05 7.806088e+07 8.165733e-06 1.1568546e-05
000160 72 8c 8a 36 72 8c 8a 36 e7 c0 0b 4c 53 ec 32 38
       4.1290705e-06 4.1290705e-06 3.6635548e+07 4.26586e-05
000170 08 02 7f 38 57 95 b5 37 57 95 b5 37 59 b3 fb 52
       6.079863e-05 2.1646423e-05 2.1646423e-05 5.4052287e+11
000180 c0 39 53 37 d8 0c 2f 37 3b f3 85 36 3b f3 85 36
       1.2590026e-05 1.0433803e-05 3.9920246e-06 3.9920246e-06
000190 11 4e 12 50 20 86 84 38 e3 f6 99 38 fd fb 26 38
       9.818359e+09 6.319233e-05 7.341595e-05 3.9812167e-05
0001a0 fd fb 26 38 0e 5a 64 52 94 f1 b1 37 65 43 7e 38
       3.9812167e-05 2.4519085e+11 2.1212538e-05 6.0621085e-05
0001b0 e3 da 05 38 e3 da 05 38 ec 3b 7b 53 08 c6 32 38
       3.1913525e-05 3.1913525e-05 1.0790421e+12 4.2622938e-05
0001c0 0a 47 fb 37 41 5c 82 37 41 5c 82 37 85 8d ac 4f
       2.9954612e-05 1.5540167e-05 1.5540167e-05 5.7899116e+09
0001d0 a8 a2 18 39 82 ea f4 38 dc 0d 06 38 dc 0d 06 38
       0.00014556444 0.00011678507 3.1960997e-05 3.1960997e-05
0001e0 12 17 17 53 00 00 00 00 00 00 00 00 00 00 00 00
       6.489271e+11 0.0 0.0 0.0
0001f0 00 00 00 00 c1 19 8e 52 50 21 2a 38 04 06 83 38
       0.0 3.0515872e+11 4.0562183e-05 6.247687e-05
000200 0f 31 fe 37 0f 31 fe 37 81 e2 e7 4e 26 af 78 38
       3.0302004e-05 3.0302004e-05 1.9451905e+09 5.9290927e-05
000210 ea b8 54 38 b6 e5 6e 37 b6 e5 6e 37 a6 9d 2b 53
       5.0716953e-05 1.4239389e-05 1.4239389e-05 7.370843e+11
000220 8a b9 0e 38 de 94 d1 37 60 6d 08 37 60 6d 08 37
       3.4028235e-05 2.4984063e-05 8.1316975e-06 8.1316975e-06
000230 93 f6 ca 37 27 ab bc 37 99 39 5d 38 94 60 0d 38
       2.4195097e-05 2.2491045e-05 5.2744148e-05 3.3706965e-05
000240 94 60 0d 38 d2 a3 f1 36 50 68 55 37 c1 18 62 37
       3.3706965e-05 7.201431e-06 1.27200765e-05 1.3476413e-05
000250 80 c6 6f 37 80 c6 6f 37
       1.4291727e-05 1.4291727e-05

exp_avg f4 [30]
000000 b3 10 0c bb e2 87 83 ba 5d db 4c bb d1 ac a1 ba
       -0.0021372258 -0.0010035003 -0.003125868 -0.0012334828
000010 e7 db 8e b8 00 00 00 00 c1 c6 83 b9 a2 35 e4 39
       -6.812048e-05 0.0 -0.0002513435 0.00043527508
000020 53 78 4c ba d7 7f a2 3a ef 62 a2 3a 59 dc 26 3b
       -0.0007799912 0.0012397718 0.0012389104 0.0025460927
000030 04 00 00 00 f0 42 11 ba 53 c2 33 38 ca d7 9d b7
       6e-45 -0.00055412855 4.2857904e-05 -1.8816343e-05
000040 8b 0a 7c b9 79 9e 71 ba 00 a4 7a bb 67 59 32 b9
       -0.0002403652 -0.00092170347 -0.0038244724 -0.00017008708
000050 79 7d 9c 3a db c0 a0 ba 65 d6 32 39 84 10 01 3a
       0.0011939249 -0.0012264507 0.00017055271 0.00049234205
000060 a6 6e 0f b8 05 9c 18 ba be 8e 9e 3a e5 ec 8a ba
       -3.4196906e-05 -0.00058215886 0.0012096984 -0.0010599165
000070 84 4f ca 3a 92 cf d0 ba
       0.0015435074 -0.0015931001

exp_avg_sq f4 [30]
000000 68 c8 ef 38 aa 4c e5 38 5d 39 0a 39 9e 36 02 39
       0.00011433737 0.00010933851 0.00013182075 0.00012418113
000010 26 04 a8 38 00 00 00 00 34 be 1d 3a 5c 0d 25 39
       8.011637e-05 0.0 0.0006017417 0.00015740603
000020 60 f1 ab 38 f7 e4 4e 39 cb a7 04 39 40 9c f9 39
       8.198875e-05 0.00019730987 0.00012651009 0.00047609396
000030 6c 0c 0c 33 67 70 f4 37 62 ae 48 35 b5 48 60 32
       3.2607588e-08 2.9139408e-05 7.4759566e-07 1.3055048e-08
000040 9b d6 15 39 df 3e 4a 38 b5 bb a5 38 e2 53 9c 37
       0.00014289694 4.8219106e-05 7.902776e-05 1.863571e-05
000050 df f2 6a 39 8b 39 00 39 9c 77 d6 38 1c 56 09 39
       0.00022406456 0.00012228468 0.00010226594 0.00013097416
000060 ba b0 38 33 d2 9b 10 39 0a 4e 80 38 15 99 82 38
       4.300157e-08 0.00013790958 6.1180515e-05 6.227397e-05
000070 e7 12 90 39 20 5b 83 38
       0.00027479904 6.26354e-05

exp_avg f4 [3, 30]
000000 bf cb 72 39 90 c9 85 c7 2b 7d 19 c8 8a ab 86 ba
       0.0002315482 -68499.125 -157172.67 -0.0010274511
000010 96 9e 9b ba 00 00 00 00 d5 0d 35 bb e8 3c 0a c7
       -0.0011872824 0.0 -0.0027626653 -35388.906
000020 50 3b 18 bb 3d 74 bd bb 39 b9 9e bb 31 1e 45 c8
       -0.0023228712 -0.005781679 -0.0048438576 -201848.77
000030 04 00 00 80 b9 e0 c4 c8 b1 a4 a8 c8 ae 91 c9 c7
       -6e-45 -403205.78 -345381.53 -103203.36
000040 3d b6 8c bb 9f e2 fb ba bb 44 0d ba 22 cd 28 c8
       -0.0042941854 -0.0019217319 -0.0005388965 -172852.53
000050 ff 5d cc ba 09 bb 69 c8 cd 7c 9f 3a 32 d2 cc bb
       -0.0015591978 -239340.14 0.0012167931 -0.006250643
000060 55 fe 57 c7 61 2f 00 c9 d3 bf 1d bb ad 92 c1 c8
       -55294.332 -525046.06 -0.0024070635 -396437.4
000070 14 58 2f b7 3d ba a5 ba 1a 5d 14 3b 97 b5 36 ba
       -1.045132e-05 -0.0012644004 0.00226385 -0.0006969808
000080 c8 53 b0 b9 33 f2 f0 3a 4e 11 bc b9 00 00 00 00
       -0.00033631758 0.0018382728 -0.00035871047 0.0
000090 69 de 57 3b 3a 5e aa b9 45 cd 9b 3a 32 8e 6c 3b
       0.0032938963 -0.0003249513 0.0011886737 0.0036095497
0000a0 eb 9e 27 3b 13 0f 37 3a 04 00 00 80 18 60 a8 3a
       0.00255769 0.0006983142 -6e-45 0.0012846021
0000b0 4c 33 80 b9 00 00 00 00 97 18 02 3b 0b db d5 3a
       -0.00024452282 0.0 0.0019851082 0.001631589
0000c0 55 37 02 39 9a a4 2a 3b 99 fa 48 3b a5 25 d7 38
       0.00012418379 0.0026038052 0.0030666946 0.00010259011
0000d0 00 1f 7b ba e1 b0 4b 3b 00 00 00 00 20 86 23 b9
       -0.00095795095 0.003108077 0.0 -0.00015594857
0000e0 24 da 3f 3b ea bf 0c 3b a6 9e 8f b8 8b e2 1e 3b
       0.002927431 0.0021476694 -6.848322e-05 0.0024243917
0000f0 5b 95 98 3b 96 e1 65 3a a5 34 44 3b 39 37 7b bb
       0.0046564764 0.00087692717 0.0029938605 -0.0038332476
000100 3e d7 11 3a 00 00 00 00 00 c6 20 3b fd 90 19 3a
       0.00055633846 0.0 0.002453208 0.0005858092
000110 b8 87 d6 3a 7e f8 df 3b c7 34 ff 3b cd 98 99 b9
       0.0016367352 0.0068350425 0.007788274 -0.0002929628
000120 04 00 00 00 b7 85 ef 3b 6c f9 d6 b8 00 00 00 00
       6e-45 0.007309641 -0.000102507736 0.0
000130 3e bc 01 3c 38 e9 13 3b 6e 32 00 3b 7c 4a c9 3b
       0.007918416 0.002256943 0.0019561308 0.0061429124
000140 fd a2 d2 39 36 91 fd 38 c3 83 9e ba 4a da 0d 3c
       0.00040175757 0.00012091028 -0.0012093711 0.008658001
000150 00 00 00 00 53 b7 54 3a d3 ce c8 3b f8 a3 e4 3b
       0.0 0.00081144756 0.006128171 0.0069775544
000160 7f e1 72 ba bd 34 20 bb
       -0.0009265169 -0.0024445497

exp_avg_sq f4 [3, 30]
000000 ca af 05 4a c8 ae b1 51 9f c5 70 53 e8 cd ed 38
       2.1903225e+06 9.5392694e+10 1.0341077e+12 0.00011339394
000010 bf a6 41 4a 00 00 00 00 3c 41 65 4c 8a 9d 6a 51
       3.1727838e+06 0.0 6.0097776e+07 6.297909e+10
000020 f7 f9 99 4b d7 e5 9f 4c 57 28 4e 4a c1 32 a6 53
       2.0181998e+07 8.3832504e+07 3.3776858e+06 1.4276322e+12
000030 eb d3 c6 33 82 ab 9f 54 2d 56 6c 54 8a 23 b6 52
       9.258641e-08 5.486218e+12 4.0602323e+12 3.9114015e+11
000040 ff 33 6e 47 9f ac 32 49 4a 69 55 43 89 19 6a 53
       60979.996 731849.94 213.41129 1.00545076e+12
000050 bb ac b3 49 f7 34 e3 53 57 f4 89 4e 58 bc b3 48
       1.4718954e+06 1.9516924e+12 1.1572458e+09 368098.75
000060 8f c3 d3 51 40 a8 04 55 9c b5 98 46 be 35 96 54
       1.1368988e+11 9.116135e+12 19546.805 5.161174e+12
000070 69 f2 fe 36 f1 bf 8a 38 cd 80 5b 39 2e 77 01 39
       7.59801e-06 6.616105e-05 0.0002093345 0.00012346797
000080 fc 38 45 38 24 be 18 39 6d d7 86 3a 00 00 00 00
       4.702153e-05 0.00014566683 0.001028759 0.0
000090 24 93 32 3a 4e 28 04 39 d7 33 3f 38 b6 54 29 3a
       0.0006812087 0.00012603516 4.558623e-05 0.00064594613
0000a0 d7 cc 3e 3a f7 19 15 39 31 12 7b 2f db 63 b6 39
       0.00072784483 0.0001421942 2.283478e-10 0.00034788143
0000b0 24 f8 cf 34 00 00 00 00 6a 3b bd 39 61 59 b7 38
       3.87373e-07 0.0 0.00036093156 8.742768e-05
0000c0 29 77 a1 36 af 3b 1f 3a cc 2a fb 39 68 ca 6a 37
       4.812046e-06 0.0006074262 0.00047906337 1.3994613e-05
0000d0 83 f8 17 3a e9 6e 87 3a 00 00 00 00 d9 6a 9c 38
       0.0005797224 0.0010332736 0.0 7.4585616e-05
0000e0 4c d2 0a 3a dd 88 da 39 9c 09 9f 38 ba 73 17 39
       0.0005295619 0.0004168217 7.583501e-05 0.00014443594
0000f0 d4 12 44 39 fc d0 7d 37 5f 4d 85 38 86 9d 42 39
       0.0001869903 1.5128633e-05 6.356346e-05 0.00018559964
000100 01 ba 5e 3a 00 00 00 00 79 d9 ef 39 05 e1 78 38
       0.00084963447 0.0 0.00045747662 5.9337373e-05
000110 9e c3 87 38 fa 32 1e 3a b7 aa 0b 3a a1 cb 84 38
       6.473738e-05 0.0006034818 0.00053278677 6.332179e-05
000120 08 1c 16 2e d0 b6 90 39 07 97 16 35 00 00 00 00
       3.4130948e-11 0.00027602026 5.609913e-07 0.0
000130 b0 58 c7 39 2c a8 d4 38 d0 24 f8 36 4f 4e 0d 3a
       0.00038022315 0.00010140272 7.3952615e-06 0.0005390392
000140 92 c5 a9 39 fd f9 20 37 ee df 02 3a 3e 22 56 3a
       0.00032381393 9.594948e-06 0.00049924746 0.00081685546
000150 00 00 00 00 22 38 24 38 27 33 c1 39 3c a1 a2 39
       0.0 3.9152925e-05 0.0003684994 0.00031019177
000160 58 28 ef 37 be df fc 38
       2.8509807e-05 0.000120579716

exp_avg f4 [3]
000000 31 75 12 bb 75 64 39 3b de 00 2b 3a
       -0.0022347684 0.0028288637 0.00065232615

exp_avg_sq f4 [3]
000000 cc 25 43 3a 9a e5 dc 39 c6 5b a9 39
       0.0007444292 0.00042132736 0.00032302568
